model.pkl (torch_old, 179204 bytes, 10 tensors)

c1.weight f4 [6, 1, 5, 5]
000000 b5 7d ee bd c5 50 b8 bd 2b be c4 bd 9b 50 85 be
       -0.116450705 -0.089997806 -0.09606584 -0.2603806
000010 ef c1 03 be e1 63 51 bd 7e ec c4 be 23 83 b6 be
       -0.12866949 -0.051120643 -0.3846168 -0.35646924
000020 22 3b 90 be 70 e4 9d be 43 c7 5e bd 9c c1 06 bb
       -0.28170115 -0.30838346 -0.05438925 -0.0020562178
000030 dc 1d 86 be a6 17 4c be 52 87 4a 3d 83 f7 c9 3d
       -0.26194656 -0.19930896 0.049445458 0.09861662
000040 b6 7b 06 be 9c 99 a0 3c 34 cd a2 3e 06 45 e0 3e
       -0.1313313 0.019604497 0.31797183 0.4380266
000050 cd 0b 9f 3e 18 45 0c 3f 6c 5a 04 3f 1c 42 d4 3e
       0.3106369 0.5479293 0.5170047 0.41456687
000060 2d 41 9f 3d d2 2b 93 bd a7 b0 38 3e 77 70 b3 3d
       0.07776103 -0.071860924 0.18036138 0.08761685
000070 e6 32 d6 3c 4f 11 b7 be 9c 01 61 be 84 08 e6 3d
       0.026147317 -0.35755393 -0.2197327 0.11232093
000080 ad cb 97 3e 79 f7 56 3e 86 35 24 be 52 d8 b2 be
       0.2964758 0.20992841 -0.16036043 -0.34930664
000090 0f b3 16 be 63 6e ee 3d e0 75 a3 3e 46 0a 50 be
       -0.14716743 0.11642148 0.3192587 -0.20316419
0000a0 1e d4 98 be ce af f2 bb 04 21 87 3e 43 56 da 3d
       -0.29849333 -0.0074062115 0.26392376 0.10660984
0000b0 12 30 3a bd a3 d3 82 be 5c ca b8 bd 18 37 b8 3d
       -0.045456 -0.2555209 -0.09022972 0.08994883
0000c0 0a 5c 8c 3e 4e a3 c3 3a d4 e7 bf bd a6 2d 28 3e
       0.2741397 0.0014925988 -0.093703896 0.16423663
0000d0 01 5b 76 3e 8d bb 60 3d 56 8d 4b be 76 75 39 be
       0.24058153 0.054866362 -0.19878134 -0.18111214
0000e0 50 1e c6 3e 8d 00 63 3e dd 09 31 3d 53 36 cf be
       0.38695002 0.22168179 0.043222297 -0.40471134
0000f0 11 89 2d 3d 13 89 c3 3e be 22 84 3e 74 83 a6 be
       0.042367045 0.38190517 0.25807756 -0.32522166
000100 86 02 da be a1 6a 8a 3e 90 42 e3 3e 01 0e 9b 3e
       -0.4258005 0.27034476 0.4438672 0.30284122
000110 06 d4 5a be 40 f5 c1 3d 8b 20 19 3e d0 3d 19 3e
       -0.21369943 0.09470606 0.1495382 0.14964986
000120 38 6a 3b 3e 71 b5 f5 3c 98 4c 16 bd 9c 17 a5 3d
       0.18302238 0.029993745 -0.03669414 0.08061144
000130 e6 29 a3 3d 8f 2b e4 3d e9 33 c4 be 3b 10 4c be
       0.07966976 0.11141121 -0.38320854 -0.19928066
000140 73 1b ac bd 2d 41 e8 bd 6f 7b ee bd 68 58 af be
       -0.08403673 -0.11340556 -0.11644637 -0.34247136
000150 36 b7 5a be c4 dd ea 3c f3 ba dd 3d f5 4b e4 3e
       -0.21358952 0.0286702 0.10826673 0.445892
000160 a1 da 01 3e 85 bc f4 bd e9 b6 88 3e 8d 6e 03 3f
       0.12681057 -0.1195002 0.2670205 0.5134056
000170 51 95 0e 3f b6 c6 91 3e 1e 1f 06 be f9 6e d7 bd
       0.5569659 0.28471917 -0.13097808 -0.10519213
000180 92 8e 1e be 05 88 dd 3c 66 64 85 3e 2d 87 42 3d
       -0.15484074 0.027042398 0.2605316 0.047492195
000190 fd 4e 2f be 73 82 96 3d de 2e 0f be ec bc 3d 3e
       -0.17119975 0.073491 -0.13982722 0.18529099
0001a0 84 8f fd 3c a6 26 5c 3a 68 72 ac bd 18 2d a9 bd
       0.030952223 0.0008398093 -0.08420259 -0.08260554
0001b0 6b 19 ff bd 9c a5 b3 3d 71 d7 4a 3e 99 c2 12 be
       -0.1245602 0.08771822 0.19808747 -0.14332046
0001c0 7c f2 41 be 53 f3 1a bd 93 d1 d8 bd 04 8f b5 3d
       -0.18940157 -0.03782971 -0.10586848 0.08865169
0001d0 f8 4d 1e 3e 81 dc b9 bd a3 a6 3b be 17 8f 4b bd
       0.1545943 -0.09075261 -0.18325286 -0.049697008
0001e0 34 37 93 bb 74 6d 7f 3d 28 8b 86 3e 5e 91 99 3c
       -0.0044926647 0.062360242 0.26278043 0.018746074
0001f0 0c a7 0e bd 26 69 01 3e 6d 2f 02 be 2b 3f 2e be
       -0.034827277 0.12637767 -0.12713404 -0.17016284
000200 9e 78 52 bd ea ab c9 bd 1f 86 25 be 12 44 6d bd
       -0.05138456 -0.09847243 -0.16164444 -0.057926245
000210 49 60 65 be ab c9 ce bd a1 68 9b bd 55 00 df bd
       -0.22400011 -0.10097059 -0.07588316 -0.10888735
000220 d9 1c 9f 3c c8 36 07 3e 83 66 24 bd 65 3d 63 3e
       0.019422935 0.13204491 -0.040136825 0.22191389
000230 14 da 31 be 74 5b 18 be fb 88 9c 3d d6 96 fd bd
       -0.17368346 -0.14878637 0.076433145 -0.12382285
000240 1f a3 5e 3e 7b 90 15 3d 5c 66 9c bd b8 be ef bd
       0.21741913 0.03651474 -0.07636711 -0.117062986
000250 fb 40 92 3c 88 ad 6f 3e
       0.01785325 0.2340604

c1.bias f4 [6]
000000 28 ec 30 3e 46 f3 54 be 4b 56 39 be 71 c0 48 3e
       0.17277586 -0.20795926 -0.18099324 0.1960466
000010 f3 c5 33 3e 09 86 1a be
       0.1755598 -0.15090193

c3.weight f4 [16, 6, 5, 5]
000000 0a 2c 82 bd d9 0b f9 bb 38 ce c0 3c f4 a3 d1 bd
       -0.06356056 -0.0076002893 0.023535833 -0.1023635
000010 bb f4 57 bd 1b 1f 11 3b 49 5d 24 3d 99 c2 f5 3d
       -0.052723628 0.0022143784 0.040128026 0.12000007
000020 c1 32 02 3d 58 ad 95 3d 28 92 2b 3c ed 82 25 bd
       0.031786684 0.07308453 0.010471858 -0.040408064
000030 fe 64 65 bd 30 74 4d 3c fb c4 c2 3d 50 56 c1 bd
       -0.056004517 0.012539908 0.09510227 -0.09440291
000040 b7 be f6 bd 55 d9 a4 bd cb 2f 16 3d e0 c0 28 bd
       -0.12048095 -0.08049265 0.036666673 -0.041199565
000050 af 6f 99 bd 93 f7 81 3d c1 3f 99 3d ad 61 9f bd
       -0.07492005 0.06346049 0.07482863 -0.07782302
000060 8a 42 ef bd d2 0f 26 bb 73 6b 83 bd c4 84 e0 bd
       -0.11682613 -0.002533902 -0.06416979 -0.10962823
000070 b7 a5 7e bd 6a 14 34 b9 a7 f0 b9 bc 63 0f 60 bd
       -0.062169757 -0.00017173743 -0.02269776 -0.054702174
000080 ec 3b 84 3d 8d 89 ee 3c 79 bf d7 bd 5c 44 47 bd
       0.06456742 0.029118324 -0.105345674 -0.048649177
000090 f5 92 e3 3c 60 5e af bc cd 7f 2f 3d 9f 03 00 3d
       0.027780036 -0.021407306 0.04284649 0.031253453
0000a0 2c e4 0a bc 4b c0 99 bc ed 7b e1 3d 6c 3c ed 3d
       -0.008477252 -0.01876845 0.11009965 0.1158379
0000b0 f6 cf 23 bc fc 1b 94 3d 3f 05 47 bd b5 11 2c bd
       -0.009998312 0.072319 -0.048588987 -0.042009074
0000c0 01 73 18 bc 2e 0d 07 bd 2f f0 77 3d 10 c0 d1 3b
       -0.009304763 -0.032971554 0.06053179 0.0064010695
0000d0 17 5e 29 3d a6 81 ed bc 99 c9 15 be 3a 07 a8 3d
       0.041349497 -0.028992485 -0.14627685 0.08204503
0000e0 01 c8 66 3d 29 65 02 3d c5 83 b4 3d 61 f2 ca bd
       0.056343082 0.031834755 0.088141955 -0.09909511
0000f0 41 bb 8d 3c 61 07 7d bb fa c0 26 bd 97 f8 38 3c
       0.017301204 -0.0038609134 -0.04071138 0.011289737
000100 36 4b 22 be ca f7 27 bd 2d e2 75 bd a5 aa 10 be
       -0.15849003 -0.041007794 -0.06003015 -0.14127596
000110 bd 59 00 bd 22 89 c9 bc 49 5e 8b bd e6 cf 03 be
       -0.03133558 -0.024601523 -0.06805093 -0.12872276
000120 14 95 0b be e3 11 ee 3d 45 b8 38 3e 11 12 0b bd
       -0.13631088 0.11624505 0.18039043 -0.033952776
000130 53 dd 36 bd 30 99 59 3d e4 93 39 bd 9b b4 03 bd
       -0.044644665 0.053124607 -0.045307055 -0.03215466
000140 38 61 c8 3c 12 82 a1 3c c1 f7 d9 3d 0d da da 3d
       0.02446042 0.019715343 0.106429584 0.10686121
000150 e9 d8 79 bd ab af d1 bc ae ce c7 3d bd b0 1b 3e
       -0.060997877 -0.02559646 0.09756218 0.15204139
000160 e8 a1 a9 3d 11 24 88 3d 88 6c 30 bc 7b a6 dd bd
       0.08282834 0.06647504 -0.010768063 -0.10822769
000170 65 cc 12 be fa 82 94 bc ba d0 33 3d af 04 7a bd
       -0.14335783 -0.01812886 0.04390023 -0.061039623
000180 df 36 0e be c7 a1 d0 3c 89 4a b5 3c cd fe 40 3c
       -0.13888119 0.025467766 0.022130268 0.011779499
000190 07 3f 4f 3d d4 3d ac 3c 88 48 a5 bd c5 05 56 bd
       0.050597217 0.021025576 -0.08070475 -0.052251596
0001a0 b0 73 43 bd 3e 0a fa 3b da b2 75 3d d0 35 88 3b
       -0.04771775 0.0076306155 0.05998502 0.0041568056
0001b0 ef 19 8b 3d 78 27 8b bd a0 8c 85 bd ec 5a b3 bc
       0.06792056 -0.067946374 -0.06520963 -0.02189394
0001c0 8f 3a 84 3c fd 84 0d bd b7 aa 03 3d f6 a2 ae 3c
       0.016141204 -0.034550656 0.03214523 0.02131794
0001d0 53 35 2d bd 60 65 9b 3c 17 af 92 3d fb 07 b9 3c
       -0.042287182 0.018969238 0.07162302 0.022586813
0001e0 e4 52 d0 bd d8 8b 25 3b 30 19 b7 bd 9a 14 8f bc
       -0.1017206 0.0025260355 -0.08940351 -0.017465878
0001f0 e4 0a 50 bd 75 b7 23 bd ac ba 34 bd 68 56 e4 bc
       -0.050791636 -0.03996988 -0.044123337 -0.027873233
000200 9c 46 b4 bc 6b 08 33 bd e5 55 80 bd ac 2c d6 bc
       -0.022006325 -0.0437092 -0.06266383 -0.026144348
000210 d6 c5 3d 3d ff 37 07 3d dc e1 1b bd 14 e3 8e bd
       0.04633125 0.033012386 -0.038057193 -0.069769055
000220 eb b8 3c bd 39 a1 94 3c 58 cc 8b bc d0 1e 38 bd
       -0.04607479 0.018143283 -0.017065212 -0.04495126
000230 d1 2d db bc fb 32 11 bb 36 9c 22 3b 8c 68 47 3d
       -0.026755245 -0.002215563 0.0024812347 0.048683688
000240 93 4c 2e 3d 27 1d d8 3c 07 28 51 bd b4 2d 62 bc
       0.042553496 0.026381088 -0.051063564 -0.013804842
000250 1e 6e 92 bd ac dc 54 bd af c7 49 ba ea ed 1f 3c
       -0.071499094 -0.05196826 -0.00076972967 0.009761313
000260 14 0a af bd db de 16 be 0c 2b 1b be 02 37 b5 3d
       -0.08546844 -0.1473345 -0.1515314 0.088483825
000270 56 d8 31 3d ea b9 16 bd d2 10 26 be 2e 4d 05 be
       0.043419205 -0.036798395 -0.16217354 -0.13017723
000280 70 d3 b7 bb 43 4c 0a 3e 97 75 d4 3d a3 21 85 3d
       -0.005609922 0.13505654 0.10373991 0.06500556
000290 4b 57 51 3d ec f3 26 3e 09 39 04 3e 15 35 aa 3c
       0.05110864 0.16303986 0.12912382 0.020777265
0002a0 a4 84 2c 3e b2 15 e7 3d fb 14 ec bc 72 2a 11 be
       0.16847473 0.11283435 -0.028818598 -0.14176348
0002b0 bf cd 23 be a0 6e eb bd d1 03 a1 bd 11 86 a5 3c
       -0.15996455 -0.114957094 -0.07862056 0.02020553
0002c0 47 86 a6 bb e8 be 97 3b a1 d5 95 bc 4b 64 2a 3d
       -0.005081925 0.004630912 -0.018290343 0.041599553
0002d0 e7 3f d2 3c 6e 69 bc bd af dc 81 3d b6 eb 37 3d
       0.025665237 -0.091997966 0.0634092 0.044902526
0002e0 a7 8d a8 3c 46 fb 12 3d ce a4 34 bb 27 1f 20 bc
       0.020575358 0.035884164 -0.0027564052 -0.009773052
0002f0 7b 54 e1 3b 48 18 a9 bd e6 8d 71 bd 3e 4c 13 3c
       0.006876526 -0.082565844 -0.058973216 0.0089903455
000300 17 ed 09 bd 39 db ce 3c b9 60 a2 bd c4 dd af bd
       -0.033673372 0.025251018 -0.07928605 -0.0858722
000310 a2 9d 9f bd 0c 27 b8 3c 59 01 d3 3c e2 96 99 3c
       -0.07793738 0.022479557 0.025757479 0.018748704
000320 af 4c 88 3d 2f 94 28 3d cd 4c 8d bd 53 b8 b3 3d
       0.06655251 0.041156944 -0.06899414 0.087753914
000330 a6 d1 60 bd f2 3d cd 3b 10 07 3d 3c 99 9b 97 bd
       -0.054887436 0.006263488 0.011537328 -0.07402725
000340 ec 79 16 be 04 0d 31 be b1 10 5f bd ef 53 7c bd
       -0.14694947 -0.17290121 -0.054459278 -0.061603483
000350 ae fa 53 3d 83 f8 53 3d 2e ee c4 bd 7c fb 23 bd
       0.05175274 0.05175067 -0.09615742 -0.040034756
000360 02 2c 10 3d 43 f2 bd 3d a5 5f c8 3d 63 cc a6 3d
       0.03519822 0.092747234 0.09783868 0.081444524
000370 c8 eb 51 3d 03 d5 3c bd ce d0 78 be c9 29 0d be
       0.05125025 -0.04610158 -0.24298403 -0.13785471
000380 bf e1 36 bd 24 f6 72 bd e4 4a 16 be b0 c6 38 bd
       -0.044648882 -0.05931677 -0.14677006 -0.04511136
000390 a1 b8 e3 bd 49 cd 04 be ea 5b 13 3e 6e 07 c4 3d
       -0.111191995 -0.12968935 0.14390531 0.095717296
0003a0 59 d0 0b bd d6 72 dd bd 32 e0 ca bd a8 61 c3 bb
       -0.034134243 -0.10812919 -0.09906043 -0.0059625693
0003b0 0e bd 1a 3d 02 8a 13 3e f3 0b 29 3d 76 f9 c5 bc
       0.037777953 0.14408115 0.04127116 -0.024166804
0003c0 43 1a b9 3c 5c 6e c4 3d 59 31 39 3e 88 bf 67 3e
       0.02259553 0.09591362 0.18085231 0.22631657
0003d0 05 63 af 3d ef 4c 32 3c 01 38 84 bd 32 73 4a be
       0.08563808 0.0108826 -0.064559944 -0.19770506
0003e0 e0 90 a4 bd 2d f0 4b bd 1c ff 42 3d 1a 8e 88 3c
       -0.08035445 -0.049789596 0.047606573 0.016669322
0003f0 11 03 99 bd 8e 71 3e 3d 62 d5 2f 3d 46 a4 76 bd
       -0.07471288 0.046495013 0.042928107 -0.060215257

c3.bias f4 [16]
000000 ac 92 0e 3d 38 04 8d bd b6 8a 97 3d ba 01 86 3c
       0.034807846 -0.0688557 0.07399504 0.016358245
000010 7a bf 74 bd 32 0d 53 3d 21 bd f5 3c ac 7a c8 3a
       -0.05975292 0.051526256 0.02999741 0.0015295348
000020 ee a0 11 bc 29 a6 8a 3d 48 d3 94 bd ea 28 f8 bc
       -0.008888466 0.06769974 -0.07266861 -0.030292947
000030 c9 71 ba bd e4 f3 75 3c fb 8f 02 3b 8c d1 9e bb
       -0.09103734 0.015011761 0.0019922245 -0.0048467573

fc1.weight f4 [120, 256]
000000 2f 9c a7 3c c6 bd 71 bd 19 ee 60 bd 1c db 32 3d
       0.020460216 -0.059018873 -0.054914568 0.04366599
000010 e2 10 99 bc 4a bf e0 3c 1f 0e 0c 3d ff f1 74 3c
       -0.018684808 0.027434964 0.034193154 0.0149502745
000020 88 9c 09 bd b6 8f 13 3d 26 b3 06 3d 80 cd af 3b
       -0.033596545 0.036025725 0.032885693 0.0053650737
000030 a0 f0 92 bd 5d 1a a0 bc da a5 82 3d 65 a3 3e 3d
       -0.07174802 -0.019543821 0.0637929 0.046542544
000040 21 cb 78 3b dd 58 d5 3d 70 fc b2 3c 4f 98 b1 3c
       0.003796287 0.1041734 0.021848887 0.021679072
000050 f9 22 48 bb 08 4c 83 bc 3b e7 89 3d cc 3f 7c 3c
       -0.0030538423 -0.016027465 0.06733557 0.01539607
000060 62 84 6d bd c7 37 00 bc da 4a 4d 3d 9e f5 78 bd
       -0.05798758 -0.007825798 0.050120212 -0.060781114
000070 c5 99 8d bc 40 bc 96 bd 68 5e c9 bb 7e 09 82 bd
       -0.017285237 -0.073601246 -0.0061452873 -0.06349467
000080 4b 49 0b bc 48 3e 61 bc 94 09 34 bc 97 6b 3f bc
       -0.008501361 -0.013747759 -0.010988612 -0.011683366
000090 ee fb 40 bc a9 02 c8 3c dd c4 66 3c 3f a5 d1 bc
       -0.011778815 0.024415331 0.014085022 -0.02559149
0000a0 2b f1 1c bb d7 65 4f 3b a8 00 9c 3c 1b 18 29 3d
       -0.0023947458 0.0031646395 0.019043282 0.041282754
0000b0 c7 57 46 bd 05 4b 33 bd 2a f9 63 bd f6 71 a7 bc
       -0.048423555 -0.043772716 -0.055657543 -0.020440083
0000c0 dc 6a b9 3c 67 f5 fc bc e6 5c b5 3c 8f c5 a1 3c
       0.022633962 -0.030878736 0.022139024 0.019747524
0000d0 5a d3 4b 3d bd 58 1a bd f9 a1 4a 3c 5a 8c 9f 3b
       0.049762107 -0.037682284 0.012367719 0.004869026
0000e0 0d cc fc 3c 40 2e 7d bc fd 5d 2f bd 99 a3 16 3d
       0.030859018 -0.015452921 -0.042814244 0.036777113
0000f0 fe e9 16 bd 14 4c 43 bd 44 01 23 bd 1b fd b9 3d
       -0.036844246 -0.047679976 -0.03979613 0.09081479
000100 a8 1e 89 3d 35 7e 6f bc d6 13 8c 3c 82 17 53 3d
       0.066953 -0.014617492 0.017099302 0.05153609
000110 65 5d c0 bc f4 f7 a4 bc af 74 14 3d 91 a9 b2 3b
       -0.023482034 -0.020137765 0.03624409 0.005452343
000120 1a 19 57 bc dd f9 95 bd 00 cd d7 bb 1a 91 ed bc
       -0.013128543 -0.07323048 -0.006585717 -0.028999854
000130 b6 48 8d bd fd 6b fa 3c 44 68 8c bd 9d 4b 47 3c
       -0.06898634 0.030569071 -0.068558246 0.012164024
000140 cc ca 02 3d bb 8e 56 3d f9 e5 d2 bc 8d 6a 76 3d
       0.031931683 0.052382212 -0.025744425 0.06016021
000150 af 9e 6a bd 7f fc 2c bd 07 30 d7 3c 03 79 78 3d
       -0.05728024 -0.042232987 0.026268018 0.06066228
000160 75 f5 d5 3b 56 47 b4 bc be e9 3c bd 9b 4b 68 3d
       0.006529505 -0.022006672 -0.04612135 0.056712728
000170 74 05 01 bd 82 ed 9f bc 89 0f 50 bd 68 64 56 bd
       -0.03149934 -0.019522432 -0.050796065 -0.05234185
000180 69 ae a9 bb ae 44 a6 3d c6 6b f4 3b 4c b1 8c 3c
       -0.005178262 0.08118568 0.0074591367 0.017174385
000190 4d 18 17 bd 86 47 38 3d ed 35 19 3c f8 68 5b bd
       -0.03688841 0.044990085 0.009351236 -0.053566903
0001a0 91 79 4e 3d 6d 6b 8e 3d 79 5c 56 3c e5 b7 cc 3c
       0.050408904 0.069540836 0.013083571 0.024990031
0001b0 b8 8d 5a 3c 92 b7 22 bc 9d bb 53 3c 6d e0 04 bd
       0.013339452 -0.009931462 0.012923148 -0.03244059
0001c0 57 77 14 3d 04 e8 82 3d df b1 49 3d 03 cf 59 bd
       0.036246624 0.0639191 0.049241897 -0.053175937
0001d0 56 85 b8 bc a5 71 c0 3b 7f d8 34 3d 08 15 15 bd
       -0.022524517 0.0058729225 0.04415178 -0.03639701
0001e0 fa 44 96 bc 9a 60 59 bd 4b 3b 94 3c 0b 85 67 3d
       -0.018343437 -0.053070642 0.01809468 0.056523364
0001f0 6a 4d 81 bd cc 3b 83 3c 8a 3b f0 bc 0b d2 2c bd
       -0.06313594 0.016019724 -0.029325265 -0.0421925
000200 aa 45 a6 bd 99 dc 99 bd df 45 9c ba fe 5f fc bc
       -0.08118756 -0.07512779 -0.0011922679 -0.030807491
000210 c8 b0 36 bd 39 90 ac bb e0 c3 7c bc 98 9f bf 3c
       -0.044602185 -0.005266216 -0.01542756 0.02339153
000220 2e 95 1e 3c b2 5b 86 bd c0 f4 bd 3c e8 6a f2 3c
       0.009679122 -0.06560458 0.023187995 0.029591992
000230 a8 0e 72 bd 13 1a f9 bc b6 30 a5 3b 06 62 0b bb
       -0.05909601 -0.030407941 0.005041207 -0.0021268143
000240 33 5c 0b 3d be bb 39 3d 44 eb 05 bc 76 36 45 bd
       0.034023475 0.04534506 -0.0081737675 -0.04814764
000250 17 09 4e 3d 89 9c e1 3b 24 df f0 bc 8f 83 18 bc
       0.050301638 0.0068851155 -0.029403277 -0.00930871
000260 ec 52 1d bd c5 da bf bc 59 be 8f bd 31 7d e5 bb
       -0.03840916 -0.023419747 -0.07018728 -0.0070034494
000270 41 da 3d bd aa f6 be bc d4 f1 4c bd c4 01 1d bd
       -0.04635072 -0.023310978 -0.050035313 -0.038331762
000280 44 8c 27 3d a7 b5 1e 3c 14 1a 8f 3c 11 4e 89 3d
       0.040905252 0.009686864 0.01746849 0.06704343
000290 ea cb 24 3d 21 f4 cd bc c1 46 19 bd af 54 87 3d
       0.04023353 -0.025140824 -0.03742099 0.06607949
0002a0 c0 ec 97 bd 7b 49 09 3d 93 17 a7 bc ce 33 1c 3d
       -0.07418203 0.033517342 -0.020396983 0.038135342
0002b0 f7 74 0f bd 5f 9a 78 bd cc 2f e1 3c 29 2f 5c bd
       -0.035023656 -0.060694095 0.027488612 -0.053755913
0002c0 f0 50 13 bb 64 1e 5f 3c d3 5d 62 3a c9 87 c0 3c
       -0.0022478662 0.0136180855 0.0008635197 0.023502247
0002d0 11 c7 63 bd 3e 2e b6 3c cf c3 29 3d e8 b3 1d bd
       -0.055609766 0.022238847 0.041446503 -0.03850165
0002e0 38 88 a6 bb cb ca 9f bd cd 59 57 3d 7d 84 f3 bc
       -0.0050821565 -0.078023516 0.052575875 -0.029726261
0002f0 0a 93 69 bd 2e be 02 3d ca 5d 9c bb 83 76 14 3d
       -0.057024993 0.03191965 -0.0047719227 0.036245834
000300 eb f9 13 bc 0a 3f 65 3c 89 fb b9 3c 83 43 c1 3c
       -0.009031753 0.01399208 0.02270295 0.023591762
000310 fa 8e 86 3c f0 0a 0c bd 63 63 6d 3b 56 14 ca bc
       0.016425598 -0.03419012 0.003622257 -0.0246679
000320 1a 27 46 3d 96 09 33 bd 20 29 ee bc 1a 21 75 3b
       0.048377134 -0.043710314 -0.029072344 0.0037403763
000330 7d bf a5 bd c6 55 9c bd f4 d5 90 bc de 32 f0 bc
       -0.08093164 -0.076335475 -0.017680146 -0.02932113
000340 05 5d 53 bd 4c 8e 1d 3d a1 0d 08 3d 4d d1 67 3d
       -0.051602382 0.038465783 0.033216123 0.05659609
000350 98 76 29 bd 79 2c ed bc 27 bb 00 bd a3 e9 48 3d
       -0.041372865 -0.02895187 -0.031428482 0.04905094
000360 59 96 f5 bc ee 35 88 3d d9 ea 04 3c be 75 ca bc
       -0.029978918 0.06650911 0.008112633 -0.024714347
000370 ba fc e0 3c 40 aa 4a ba 27 1e 81 3c 71 10 eb 3c
       0.02746426 -0.00077310577 0.015761448 0.028694363
000380 45 7c 73 bd a7 32 e7 bc 62 20 92 bd 15 ec 6f bd
       -0.059444685 -0.028222395 -0.07135083 -0.058574755
000390 1c 23 b5 3d 67 d7 e1 3c e5 7e 41 3d b0 8d 61 bd
       0.08844587 0.027568532 0.047240157 -0.055066764
0003a0 f0 78 16 3d a4 ce 46 bd 3c 11 d5 3c 47 f3 4e 3d
       0.03673643 -0.04853691 0.026009195 0.050524976
0003b0 16 16 67 bd 8c cc 8e bd 64 6d a1 bb 15 56 10 3d
       -0.056417547 -0.06972608 -0.0049263705 0.035238344
0003c0 f0 fb 2d bc f1 6a 35 bd cb d1 70 bd f6 ef e2 3b
       -0.010619149 -0.04429144 -0.058793824 0.006925578
0003d0 c3 eb bf 3c eb fb cd 3c d0 45 06 bd e6 8a 22 3c
       0.02342785 0.025144538 -0.032781422 0.009920811
0003e0 98 d1 bd 3d 1b 97 47 3d 35 59 f2 3c 7c c4 7b 3d
       0.092684925 0.04872809 0.029583553 0.06146668
0003f0 f3 ec 8e bc 04 47 55 bd 8b 9e 28 3d 5e ff c2 3c
       -0.01744697 -0.05206968 0.041166823 0.02380341

fc1.bias f4 [120]
000000 76 8b 19 bc f6 d3 26 3d af b2 78 bc dc 4c f2 bb
       -0.009371629 0.040729485 -0.01517932 -0.0073944163
000010 b2 8e 2b 3a c0 25 4f 3d c1 85 3b bd 45 78 57 bd
       0.00065443956 0.05057311 -0.045781855 -0.052604932
000020 0e 5f 37 3d 98 0f a5 3c fb 3e 4b bc bb 6d a5 3c
       0.044768386 0.020149037 -0.012405152 0.020193925
000030 06 89 7d 3d 9a e1 64 bd 7c b9 60 3d 14 e1 32 bd
       0.061898254 -0.055879213 0.05486439 -0.043671682
000040 2d 1b 5b bd ef 89 8d 3c e3 3d aa 3b bb ca c0 bc
       -0.053492714 0.017277686 0.0051953658 -0.02353417
000050 ca 76 06 3d f6 53 12 bd d0 3f fa bb 7c 27 36 bc
       0.03282813 -0.035724603 -0.0076370016 -0.011117812
000060 f0 77 9a bc f4 48 4a bd 63 c6 a5 bc 3a 0c 78 3d
       -0.018856019 -0.04938598 -0.0202362 0.060558535
000070 71 e1 6e 3d 56 55 34 3b 50 65 23 bd fd e5 ec bc
       0.058320466 0.0027516684 -0.03989154 -0.02891826
000080 c2 7d 5a 3d 1a c2 41 3c 40 21 ad 3c 78 f4 1d bc
       0.05334259 0.011826063 0.021134019 -0.009640805
000090 6a 1d d1 39 f2 46 0b bd 0d 9e 2f bd b7 f5 1d bd
       0.00039885502 -0.034003206 -0.04287534 -0.03856441
0000a0 c9 83 6d 3d 47 c1 86 bd e2 7a 81 bb 6e 51 1c bb
       0.05798701 -0.065798335 -0.0039514164 -0.0023852247
0000b0 85 58 01 bd 24 9d 55 bc eb cf 17 3d 2e d7 66 bd
       -0.03157856 -0.0130379535 0.03706352 -0.056357555
0000c0 99 f6 55 bd fc 66 93 bc 78 f7 33 3d 36 2a 0b bd
       -0.052237127 -0.017993443 0.043937176 -0.033975802
0000d0 c2 6e 48 bd c8 bd b5 bc 54 1d b0 bc 2c a6 e0 3c
       -0.048933752 -0.022185221 -0.02149836 0.027422987
0000e0 d3 f0 51 3d 40 f8 e9 bc 15 69 09 3d 4b 6e c9 bc
       0.05125506 -0.028560758 0.03354748 -0.024588725
0000f0 6b 8a b3 3b d0 bc 38 3d df 3a 03 bd 0e 62 06 3d
       0.005479147 0.04510194 -0.032038566 0.032808356
000100 1d f8 dc bc d9 b1 57 bd e1 1d 2f 3d 7a 9c 65 bd
       -0.026973778 -0.052659843 0.042753104 -0.05605743
000110 98 21 ca bc c8 b0 37 3d 1b be 13 bd e5 15 fe 3c
       -0.024674222 0.044846326 -0.03606997 0.0310163
000120 59 b4 dd bb 7a 81 80 3c 00 c6 c9 3c 5f 80 d6 3c
       -0.006765884 0.01568674 0.024630547 0.026184259
000130 25 d9 7f bb 5b 9e 0b bd 90 65 fa 3c 1b 89 6d bc
       -0.003903934 -0.034086566 0.030566007 -0.0144980205
000140 d5 81 a4 3c 09 74 8e 3c 58 48 93 bb bb 78 24 bd
       0.02008144 0.017389314 -0.004494708 -0.0401542
000150 af 37 01 bd cb a3 3e bd c5 14 40 3d 8d 56 46 bd
       -0.031547245 -0.046542924 0.046894807 -0.048422385
000160 85 53 42 bb 8b 56 29 3d 3a 36 20 bd 5c 4d 31 bd
       -0.0029651832 0.0413423 -0.039114214 -0.043286666
000170 4d 8c df bc a5 b8 b1 3c 38 1c 39 3d 09 69 5c 3d
       -0.02728858 0.02169449 0.045192927 0.053811107
000180 02 21 3b 3d e1 ca 17 3d d2 f6 2d 3d 6a d9 25 bd
       0.045685776 0.037058715 0.042471714 -0.040490545
000190 71 13 e1 bc b4 c9 4d 3d fc 31 b4 3b a1 53 95 bc
       -0.02747509 0.050241187 0.0054991227 -0.018228354
0001a0 a3 2f 67 bd 00 aa e7 3b 2a 01 5e bd 0d e5 3a 3d
       -0.056441914 0.007069826 -0.05420033 0.045628596
0001b0 f1 f9 b3 b9 76 f1 7e bd 17 4a 23 3c c5 86 8a bb
       -0.0003432776 -0.062241994 0.009966395 -0.0042274916
0001c0 5d 51 93 bb 69 9e 2f 3c 3b ee ed bc 94 66 16 bd
       -0.0044957832 0.01071892 -0.029044261 -0.03671892
0001d0 44 22 ad 3c 90 5a cd ba 2c 4e 58 bc ee 3b 5c bc
       0.021134503 -0.0015667249 -0.013202231 -0.013442023

fc2.weight f4 [84, 120]
000000 21 40 05 bd 45 6b a0 3d 32 11 84 3d 79 15 2a bd
       -0.03253186 0.0783296 0.06448592 -0.041524384
000010 9c 0b 92 bd 73 89 8d bd a6 ef 7d 3c 3e e5 09 3d
       -0.071311206 -0.06910982 0.015499031 0.033665888
000020 ae ab 85 bb db 72 15 bd 07 5b 06 3e 3f e1 9a 3d
       -0.0040793037 -0.036486488 0.13120662 0.075624935
000030 33 d1 76 3c 13 86 3c bd d9 1a 79 3c 95 40 52 3d
       0.015064525 -0.0460263 0.015204155 0.05133112
000040 ff 12 4a bd 0f 9d ad 3d fb 7e af bd bc ad 6e 3d
       -0.049334522 0.08477222 -0.085691415 0.058271155
000050 ec d6 15 bd a9 78 0d 3d 9d 5f d2 bd 62 ba 61 3d
       -0.03658192 0.0345389 -0.10272143 0.05510939
000060 1c 2c cf 3d ba fc d1 3c ad 97 32 bd 37 6f 9d 3c
       0.10115835 0.025633205 -0.04360168 0.01921807
000070 a0 a5 d6 bd 82 f9 de 3c 79 54 07 bd 2d 9f 13 bc
       -0.10480809 0.027218584 -0.033039544 -0.009010118
000080 82 8b bd bc eb 2d ca 3d 85 f0 bb 3c e0 07 95 3d
       -0.023137812 0.098720394 0.022941837 0.07276893
000090 f3 73 e3 bd 0c 6f 3e 3c 60 05 ab bd 0b 26 bf 3c
       -0.111061 0.011623155 -0.083506346 0.02333357
0000a0 ff a9 d1 3d 5e d7 aa bb 5c 5d 99 3c 21 05 67 3d
       0.10237502 -0.005213662 0.018721275 0.056401376
0000b0 40 f2 52 3d a3 7e 54 3b 69 af e1 3d 35 d9 6e 3d
       0.05150056 0.0032424114 0.11019785 0.058312614
0000c0 c1 d1 85 bd c0 d1 e8 3c 64 a0 c1 bd 6c b6 b3 3b
       -0.06534148 0.02842033 -0.0945442 0.005484393
0000d0 5a 4e 71 3d 9d 1d f0 bd f0 0e cb bc 29 32 cc bc
       0.058912612 -0.11724398 -0.024787396 -0.024926262
0000e0 43 4a 16 bd 51 c8 1e 3c 0f 6c c5 bc 20 2a 4b bd
       -0.036691915 0.009691314 -0.024099378 -0.04960072
0000f0 16 31 57 3d 83 b1 6c 3d 82 9f a9 3c c9 5c 2f bd
       0.052537046 0.057786476 0.020705942 -0.042813096
000100 51 ac a4 bd b4 61 2d bb c5 dc 3c bc ad cb f0 bb
       -0.08040679 -0.002645594 -0.011527245 -0.007348499
000110 71 3e 64 3a 0c 1c 7e 3d 9a 3e 1b bd 48 ba 2a bd
       0.0008706814 0.062038466 -0.0379015 -0.041681558
000120 c7 ff e3 3c 99 10 a4 3d 86 de 67 bd f4 6e 88 3d
       0.027831925 0.08010978 -0.0566087 0.06661788
000130 5d c2 7d bd d2 e6 cd 3d a8 de f4 3d c0 eb 9f 3d
       -0.061952937 0.10053791 0.11956531 0.078086376
000140 87 26 5d 3d cb ad b4 3d e7 9a 86 3d d4 ee 54 bd
       0.05399182 0.08822211 0.06572514 -0.051985577
000150 32 ce 99 bd 65 c7 d2 bd cd 9b e6 3b ec 40 aa bd
       -0.07510032 -0.10291938 0.007037616 -0.08313164
000160 b0 5c fa bc 1f 19 b5 bd d3 42 84 3c 93 08 a8 3b
       -0.030561775 -0.08842682 0.016145146 0.0051279753
000170 6c 3f a5 3c 95 cd ea bc 06 02 9d 3d f2 2e 90 bc
       0.020171843 -0.028662482 0.076664016 -0.01760051
000180 8b 0d e4 3c 05 ef 07 bd fb ec a9 bd f4 29 13 3d
       0.027838489 -0.03318693 -0.082971536 0.03592868
000190 d8 fb df bc af 8a 84 bd 0a 88 8c bd 9e e1 9a 3d
       -0.027341768 -0.06471764 -0.06861885 0.07562564
0001a0 00 e2 aa bd 6e a8 12 3d 72 3f 2d 3d b2 0b af 3c
       -0.08343887 0.03580516 0.042296834 0.021367881
0001b0 1c d0 4f 3d 8a 46 e1 3c 0e 44 14 bd aa 55 b8 3d
       0.050735578 0.027499456 -0.036197715 0.09000714
0001c0 22 41 ab bd ea a3 95 3d 95 f3 ff ba f2 8f 26 be
       -0.083620325 0.07306655 -0.0019527549 -0.16265848
0001d0 58 c8 1f bd 70 1f 46 bd 1e 39 88 3d f7 8e d4 3c
       -0.039009422 -0.048369825 0.06651519 0.025947077
0001e0 39 74 a6 bc d9 d2 8f 3d 9b 6a ac 3b 4c 32 ed bc
       -0.020319091 0.07022638 0.005261732 -0.028954647
0001f0 ee bc 76 3d 24 18 64 bc 5b e3 b6 3d d5 a3 64 3d
       0.06023877 -0.013921771 0.08930083 0.055820305
000200 5e a3 99 3d 2d fc 05 bd 53 d4 79 bc 24 ef 82 3c
       0.07501863 -0.032711197 -0.015248376 0.015983172
000210 3d 21 c9 bd a9 db 6e 3b 0d f3 c1 bc 89 15 bb 3c
       -0.09820793 0.0036446846 -0.023675466 0.022837417
000220 f5 d4 a5 bd fb 3e f7 3c 07 f1 91 bd ca 26 cc bb
       -0.08097259 0.030181399 -0.071260504 -0.00623021
000230 65 6d cc 3a f0 a9 99 3d 27 76 a1 bd 84 ef 9c bc
       0.0015596567 0.07503116 -0.07883864 -0.019157179
000240 80 d1 8c bd b0 3e 82 bd b5 ac 63 3c 1d f5 18 bc
       -0.068758965 -0.06359613 0.013896157 -0.009335783
000250 2c 26 a6 bc 41 bb a9 bd 0c fd 7d 3d 65 13 61 bd
       -0.020281874 -0.08287669 0.062008902 -0.054950137
000260 4b b8 cf 3c 6a f3 c4 bc 79 cd 75 bd 44 ac 16 3d
       0.025356432 -0.02404185 -0.060010407 0.03678538
000270 fc 85 9d bd d7 52 84 bd 90 1c 75 bb 19 2e a6 3d
       -0.07691571 -0.06461113 -0.0037401058 0.08114261
000280 82 c1 a0 3d 58 aa 9c bd 04 e6 49 bd d3 3c 5a 3b
       0.07849409 -0.07649678 -0.049291626 0.0033300414
000290 5a 59 8f bd b6 24 e1 bc b2 fb 56 3d 6f ac c3 3c
       -0.06999464 -0.027483325 0.05248613 0.023885934
0002a0 13 71 58 bd d8 23 b9 3d 95 ae 09 3d 6e 34 41 3d
       -0.05284221 0.0904004 0.03361376 0.04716914
0002b0 b5 5d 03 bc 96 c6 f0 bc 6c a9 9c 3d f8 4e 9c bc
       -0.008017947 -0.029391568 0.07649502 -0.019080624
0002c0 a0 07 1c bb 15 a5 a8 3c e4 89 9c 3d d8 89 fc 3d
       -0.0023808256 0.02058653 0.07643488 0.12330979
0002d0 90 b7 5c 3d f7 da e6 bc 92 e0 5d bd 92 5a a7 3d
       0.053885996 -0.028180582 -0.054169245 0.08171572
0002e0 0f 87 17 3d b3 63 6d bd c9 a6 4b 3d c0 e4 ae 3d
       0.036994036 -0.05795641 0.049719606 0.08539724
0002f0 3e 47 2a bb 40 f9 a5 3d 37 f7 fc bc 67 42 52 bd
       -0.0025982405 0.08104181 -0.0308796 -0.051332857
000300 fb 47 06 3d dd 74 63 3d 4a 73 b6 3d 36 54 52 bd
       0.03278349 0.05553137 0.089087084 -0.05134984
000310 42 c2 88 bd db e1 55 bd a8 24 c6 bb 61 b7 12 3c
       -0.06677677 -0.052217346 -0.0060468502 0.008954854
000320 9c ad b1 3d 87 8e 58 bd ed c0 3c 3d f0 38 e4 3d
       0.086756915 -0.0528703 0.046082426 0.111436725
000330 90 0f 95 3d 74 0b 53 bc ea df 35 bc d4 46 bb 3d
       0.07278359 -0.012881149 -0.011100749 0.09144369
000340 21 47 c8 bd 5b 38 99 3d 5e 4d 45 bd 24 09 2a 3d
       -0.09779192 0.07481452 -0.048169486 0.041512623
000350 1b 8a 3b bd c4 41 84 bc 2a 6a 8c bd ed 23 7d bd
       -0.045786005 -0.01614464 -0.06856187 -0.06180184
000360 c2 eb 1d bd 27 18 16 3d db 14 33 bd 55 6e ca 3c
       -0.038554914 0.036644127 -0.04372106 0.024710814
000370 82 ca b3 bc 71 de b2 bd 0e fc ce bd 15 c8 f8 bc
       -0.02194715 -0.087338336 -0.10106669 -0.030368844
000380 3d e3 9c bd 02 16 9e 3d 50 2a 59 3d e3 1e b5 3b
       -0.0766053 0.077190414 0.053018868 0.0055273636
000390 f0 86 4e 3d 52 96 b4 bd ae da 83 bd b2 c3 74 bd
       0.050421655 -0.08817734 -0.06438194 -0.059756942
0003a0 d8 bf 20 bd 88 1c a1 3c 36 52 65 3d 28 01 18 3d
       -0.039245456 0.019666925 0.055986606 0.037110478
0003b0 58 b4 f4 3c 30 b0 53 bc d8 66 b2 3b 15 bf 54 3b
       0.02987115 -0.012920424 0.005444389 0.0032462527
0003c0 31 0f 1f 3d 65 88 5e bd ee ea 7a bd d7 77 b1 3d
       0.038832847 -0.054329295 -0.061259203 0.08665436
0003d0 6a 67 88 bd d6 0d 1a bd f7 e5 b5 3c 63 f7 88 bd
       -0.0666035 -0.03761085 0.022204382 -0.0668781
0003e0 4b 9c 2a 3c 76 0a b2 3d cf 92 db bc 76 83 8e 3d
       0.01041324 0.086934015 -0.026803402 0.06958668
0003f0 76 62 09 bd 23 95 45 bd d3 0d 10 bd b2 7c 23 3d
       -0.033541165 -0.04823793 -0.035169434 0.03991384

fc2.bias f4 [84]
000000 a4 e2 2a 3d 88 d3 1e 3b f9 b2 5a 3d 7e 67 a1 bd
       0.041720048 0.002423497 0.053393338 -0.07881068
000010 25 32 8d 3d 97 79 9b bd 2a 92 34 3d 60 6e b9 bc
       0.0689433 -0.07591551 0.044084705 -0.022635639
000020 4a c0 ee bc 35 18 0a 3d 03 d4 0a 3d ee ec 28 3d
       -0.029144425 0.033714492 0.033893596 0.04124158
000030 51 1a 86 3d dc 5a 56 bd a6 ee 7c 3d c8 d1 5d bd
       0.06547988 -0.052332744 0.06175103 -0.05415514
000040 5d ba 92 3d a0 79 ae bc 9c 76 99 bc f4 3b a1 bd
       0.07164452 -0.02129823 -0.018733315 -0.07872763
000050 c1 80 60 3d 44 99 3a 3c af fa e6 bb ee 81 3c 3d
       0.05481029 0.01138908 -0.007048927 0.046022348
000060 2b 98 aa 3d 66 76 ac 3b b8 7e 34 3d 06 54 2a bd
       0.08329805 0.0052631376 0.04406616 -0.041584037
000070 d0 67 8f 3d 4e a4 c1 3b e0 fb 08 3c b8 94 97 bd
       0.070022225 0.005909479 0.008360833 -0.07401413
000080 35 3d 59 bd 79 ec dc ba 4d 62 dc 3d c4 96 bd 3d
       -0.053036887 -0.0016855142 0.10760937 0.09257272
000090 55 2f 62 bd 57 38 28 bd 1f 4a 49 bd d2 98 4d 3d
       -0.05522092 -0.041069355 -0.049142953 0.05019457
0000a0 89 d4 4e 3d 5c 67 36 3d 5d 8c 28 bb db e3 0e 3d
       0.050495658 0.044532165 -0.0025718429 0.03488527
0000b0 e2 84 df 3d 12 ba 96 3d dc 81 ff bc ea c8 a7 bd
       0.10914017 0.07359709 -0.031189851 -0.08192618
0000c0 86 93 2d bd 9a 61 b4 bc 3b 28 8e bd 4a fa 5b bc
       -0.042377017 -0.022019196 -0.06941267 -0.013426373
0000d0 08 aa 67 bd 22 f4 c0 bd 49 57 01 3e 37 2e c4 3d
       -0.05655864 -0.09421565 0.12630953 0.09579127
0000e0 c4 8a 85 bd 08 ab 5c 3b 9c 61 a5 bd 29 d3 b0 bc
       -0.06520608 0.0033671279 -0.08075258 -0.021585064
0000f0 38 f3 8b 3d 18 e6 8c bd 4a 0c ad bd cd fe 40 3d
       0.068335 -0.068798244 -0.084496096 0.047117997
000100 ee 76 88 ba e7 07 f2 3c 1e 0e cf bc 67 05 b4 bc
       -0.001041142 0.029544784 -0.025275286 -0.021975232
000110 a1 56 59 3d 9b 8b 21 3d 4a 5e a9 3d 0f 92 31 bd
       0.05306113 0.03943978 0.08269937 -0.043352183
000120 ba 13 80 3b d2 08 b6 bc 0f de 5d 3d a0 e0 cb bc
       0.0039086016 -0.022221003 0.05416685 -0.024887383
000130 89 7a 66 bd 34 df 72 3c 5b e6 be 3c d0 d3 76 bc
       -0.056269202 0.014823724 0.023303201 -0.0150651485
000140 ff 57 34 3d 8d b4 76 bd 23 b6 3c bd 20 c7 eb bc
       0.044029232 -0.06023078 -0.046072137 -0.028781474

fc3.weight f4 [10, 84]
000000 9e 6c 52 bb c8 16 b6 ba fe 7d 22 bd 24 87 98 3d
       -0.0032108198 -0.0013892287 -0.039670937 0.07447651
000010 e8 37 05 3c fb 9d ab 3d 34 4d 8d 3d ae c3 91 bd
       0.008131005 0.08379742 0.06899491 -0.07117401
000020 2e 17 8b bd 2d c5 64 3e 84 e1 c4 bd 8b d8 a2 3d
       -0.067915305 0.22340842 -0.09613326 0.079514585
000030 73 df d8 bd 83 12 11 be 68 2e a0 bd 98 6e c7 bd
       -0.105894946 -0.14167218 -0.07821351 -0.09737891
000040 cc 83 b7 3d 55 6e 43 3e 5c a9 46 3e 31 26 65 bd
       0.08960685 0.19085057 0.19400543 -0.055944625
000050 9a 1a 83 bd 5e 46 11 be 76 e3 52 bd 93 2f b8 bd
       -0.06401558 -0.14186999 -0.051486455 -0.08993449
000060 41 35 11 bd 3b af 86 bb 96 7c 9c bc 5e 19 6c bd
       -0.035451178 -0.0041102446 -0.019102376 -0.05764138
000070 ce 2d 14 3e e9 9c 03 bd f8 68 bd bd d6 12 3c be
       0.14470598 -0.032132063 -0.09248537 -0.1836656
000080 69 bf 29 be 72 1f 32 bd 73 6f c6 3d b9 7e 4f bd
       -0.16576923 -0.04348702 0.09689226 -0.05065796
000090 09 75 13 be c5 01 b1 3d ff ef 47 3d 42 22 82 3e
       -0.14400114 0.08642916 0.048812862 0.25416762
0000a0 dd bc d4 3d 62 50 81 bd 3e 0c 2a bd e1 9e c2 3d
       0.10387585 -0.0631416 -0.04151558 0.0950296
0000b0 37 cb 3b bd 28 c1 63 3e 10 06 c1 3b 69 7d 50 bd
       -0.045848098 0.22241652 0.0058906153 -0.05090085
0000c0 9f 99 46 bd f6 be 1d be 56 31 9c bd 27 4f 0e be
       -0.04848635 -0.15404877 -0.076265976 -0.13897382
0000d0 37 ff 71 3d 80 f5 61 bd 06 80 57 be 60 99 29 be
       0.059081282 -0.055165768 -0.21044931 -0.16562414
0000e0 84 6c 6c 3e e8 c1 ca bd 1b 07 c2 bd 53 36 6b 3d
       0.2308827 -0.09900266 -0.094740115 0.057424854
0000f0 44 23 ff 3d d6 11 8d bc f0 c6 d2 bd 29 34 25 3e
       0.12457898 -0.017220419 -0.102918506 0.16133179
000100 05 23 94 bd 83 42 91 bd 7d 16 1e 3d 84 b0 c8 bc
       -0.07233242 -0.07092764 0.038595665 -0.024498232
000110 87 01 e6 3d 8a 97 5f be ce 4b 63 3e 09 23 e9 3d
       0.1123076 -0.21835151 0.22196886 0.113836356
000120 d8 57 24 3d f3 2c 3e bd 9d 91 94 3e c6 c1 f9 3d
       0.040122837 -0.046429586 0.29017344 0.121951625
000130 82 e5 55 3e fb f9 d6 3d b2 82 39 be 88 36 97 3c
       0.20888332 0.10496899 -0.18116263 0.01845862
000140 ea 95 20 be 09 0b 7a be 86 37 00 3e 6b ab d0 bd
       -0.15682188 -0.24418272 0.1252118 -0.101889454
000150 00 dd 3d be 01 ed 71 bd 53 70 95 3d aa e4 5c bd
       -0.18541336 -0.059063915 0.07296815 -0.05392901
000160 12 65 6d 3d 6a a0 80 3d 04 da 13 bc bb fc ab 3d
       0.057957716 0.062805966 -0.009024147 0.08397814
000170 92 16 d9 bc e7 fb 99 bd 96 da 43 3e ba 09 31 be
       -0.02650002 -0.0751875 0.19126353 -0.17288867
000180 ed 73 e9 3d c5 9e 88 3e f0 47 fa 3c 2d 07 35 be
       0.11399064 0.26683632 0.03055188 -0.17678519
000190 35 fe 2f bd 55 f4 72 3d de cc 27 bd 0e 64 5e 3d
       -0.04296704 0.059315044 -0.04096686 0.05429464
0001a0 52 42 ba bd 9b 77 25 3e 1d a6 38 3b 1b b9 ee bd
       -0.09094681 0.16158907 0.0028175183 -0.116564
0001b0 13 55 0a 3c 5c 6a b5 3d 3a 45 dd 3d da a5 b6 3d
       0.008443135 0.08858177 0.108042195 0.089183524
0001c0 f1 2d 0a 3e 1b af 12 3b ca bc 12 3e 7d 17 00 3d
       0.13494088 0.0022382203 0.1432983 0.0312724
0001d0 57 c1 9d bb 76 26 da bc d7 11 e4 bd ef cd 5e 3d
       -0.0048143077 -0.026629668 -0.11136215 0.054395612
0001e0 7e 47 88 be 74 1b be bd 2e 5a 5c 3e ac a1 82 bb
       -0.26617044 -0.0928258 0.21518776 -0.003986558
0001f0 e5 69 ca bd 4a b0 93 3e e2 d3 c2 3d dd b8 d5 bd
       -0.09883479 0.28845435 0.0951307 -0.104356505
000200 a1 c0 57 be 64 52 59 be 47 a4 33 3d bf 35 c4 3d
       -0.21069576 -0.21222836 0.04385784 0.09580564
000210 18 68 f6 3d 88 61 b8 3c 01 0c 0f 3b 9b d8 73 3e
       0.12031573 0.022507444 0.0021827223 0.23813097
000220 e1 5d d5 bc 1a 28 a1 3c f0 0b f4 3d 6c e8 3d be
       -0.026045742 0.019672442 0.119163394 -0.18545693
000230 6f ce b1 bd 83 d6 84 3d 34 ef 8f bd 86 37 ca bb
       -0.08681952 0.06486227 -0.07028046 -0.0061711697
000240 5f 74 bb bd b9 56 1f 3d a6 6b 60 bd 8a d7 f7 bd
       -0.091530554 0.038901065 -0.05479016 -0.12101658
000250 ac 33 3e be d4 a6 59 3e b8 91 86 bd 12 a8 41 be
       -0.18574399 0.21255046 -0.065707624 -0.1891177
000260 07 ad 1c 3b 0d 30 24 3d a2 8b af bd 58 cd 1a be
       0.0023906843 0.040084887 -0.08571555 -0.15117395
000270 d9 66 4b bd 3b 03 a9 bc 8c 4d 0f 3d a7 d9 f7 bd
       -0.04965863 -0.020631423 0.034986064 -0.12102061
000280 4f 3c d0 3d 12 cf a5 bd 32 56 8c 3c 6b 05 b4 3d
       0.10167753 -0.08096136 0.017130945 0.08790096
000290 3d 71 5a 3e ee a2 b5 3d 2d 61 98 be 94 1f b5 3d
       0.2133226 0.08868967 -0.2976164 0.08843914
0002a0 3b 0e 3f bd e4 b5 83 3c 0a cb 00 3e 8a 04 1d bd
       -0.04664443 0.016077943 0.12577453 -0.038334407
0002b0 19 b2 5a 3e 65 59 8b 3d cf 7a 4e 3d 95 fe db bd
       0.21357001 0.0680416 0.05041009 -0.10741917
0002c0 78 df 8f 3d d8 7f 17 3e f1 43 44 be fc f5 20 3e
       0.07025045 0.14794862 -0.19166543 0.15718836
0002d0 bb 45 05 3f 99 d0 05 3e 62 dc 9f 3d b7 c6 57 3e
       0.52059525 0.13067855 0.078057066 0.21071897
0002e0 73 0e da 3d 9c 18 94 bc cf 83 0a be c4 c6 08 3e
       0.10647287 -0.01807814 -0.13526843 0.13357073
0002f0 dd 0f 1a bd e2 46 12 3e df 5a c0 bb 0b 22 1e 3c
       -0.037612785 0.14284852 -0.0058702077 0.009651671
000300 0e 4a 58 3e eb 3f 04 3e 92 a5 ee bd 48 5e f6 3b
       0.21122 0.12915008 -0.11652674 0.0075185634
000310 1f af 33 3e e5 fc aa bd 3b 4b 43 bd e9 7a 29 3d
       0.17547272 -0.08349017 -0.047679167 0.041376982
000320 b5 30 93 3d 35 1c d6 3c 0a 4a 5c bc 0e 5c a3 3d
       0.071870245 0.026136497 -0.013445387 0.079765424
000330 53 d7 c5 bc 7a f0 5a bd 22 dc a1 bd 8a b6 2c be
       -0.024150526 -0.053451993 -0.07903315 -0.16866508
000340 1f 30 04 3d 85 e8 f8 bd 60 8c 29 3d 94 6d 77 bd
       0.032272454 -0.121537246 0.041393638 -0.060407236
000350 aa 1c 32 be a5 7d 00 3c 1f eb cc 3c 01 87 df 3d
       -0.17393747 0.007842456 0.025014458 0.10914422
000360 5f 42 c5 bd 50 f2 fd 3c 8e 3e b2 bd 9d d4 d5 bd
       -0.096318 0.030999333 -0.087033376 -0.104409434
000370 32 12 6a bd f0 b9 8a bd 5f 49 03 be bd d0 13 bd
       -0.05714626 -0.06773746 -0.12820958 -0.03608774
000380 28 1a da bd 8c 3b d6 bd d1 b7 7c bd ac 3e d2 bd
       -0.1064952 -0.104605764 -0.06169874 -0.1026586
000390 e6 06 aa 3e 82 37 c6 3c 06 5e a7 bd e1 c1 9a 3a
       0.33208388 0.02419639 -0.081722304 0.0011807048
0003a0 76 36 23 be 34 92 a4 3d 91 f8 ad 3d e2 80 51 be
       -0.15938744 0.080356985 0.08494676 -0.20459321
0003b0 fd f1 0f bd f8 5e 34 be a9 57 08 3e 50 f6 3a 3c
       -0.035142887 -0.17614353 0.1331469 0.011411265
0003c0 2e 87 ad 3c b8 0b 1f be 25 e3 80 be 1c 26 9f bd
       0.021182623 -0.15531814 -0.25173298 -0.07770941
0003d0 e9 a4 b4 3b b3 d9 b8 3d 7c db 15 be 7b 80 f8 3d
       0.005512823 0.09025898 -0.14634508 0.12133881
0003e0 16 ba 5e be 9f 22 ec bc 91 bb 5c be 33 7a f7 3a
       -0.21750674 -0.028825102 -0.21555926 0.0018881023
0003f0 7d f1 1b 3e 56 94 bc bd c7 82 2c be fd dc f5 3b
       0.15228839 -0.0920798 -0.16846763 0.0075031505

fc3.bias f4 [10]
000000 8a b0 79 bc 2d 33 de 3c d1 cd 05 bc 57 6a bb 3d
       -0.015239844 0.027124012 -0.008166746 0.09151142
000010 de 24 0e 3c 68 45 fa 3d f9 53 35 bb b5 d9 63 bd
       0.008675782 0.122202694 -0.002766846 -0.055627543
000020 6c c8 97 3d 90 2a 5d 3d
       0.07411274 0.05399567
